assignment_2/part2/summaries/002sixhours/checkpoints/000085000.pt (torch_old, 934906 bytes, 13 tensors)

weight f4 [80, 32]
0.88503134 -0.29969445 -1.4393096 1.4797324 0.71544737 0.4730496 2.0504045 0.09705726
-0.32347542 -0.29128247 0.5730315 -0.30087006 0.15174064 -0.486117 2.3410928 3.2900457
0.45960897 -0.18399692 -1.0520153 1.1271771 0.32888922 -1.2777699 2.7308538 1.5594467
1.3786954 -0.14929265 1.242327 0.6206465 -0.7040882 0.90508646 -1.3112794 1.8351287
0.9251502 -2.2688696 -1.1913751 2.6795144 1.9707019 2.2661881 0.7451864 4.1029243
-0.53301096 -1.4911443 -1.755825 1.6510032 2.261239 -0.13718405 -1.151469 -1.5315714
2.0139759 4.740174 1.4600059 1.2873996 -2.8648896 1.2102959 -0.24409714 5.516021
-3.8148463 -1.2216724 1.7749169 1.9886707 -0.7245651 0.113031186 3.3804095 4.4210706
-0.3842785 0.06768383 0.5171602 1.6484622 -3.7566068 0.6624374 -0.9362635 1.0399017
-2.7935276 -0.7309305 0.95537674 1.252575 0.072754815 -0.078346044 2.6924253 -0.2778031
-1.6293421 1.1053929 0.6635947 0.5137488 -0.49574283 1.9100988 1.289593 1.6366575
0.42641526 1.8995677 0.59228146 1.5775354 0.8326269 -1.1555839 -0.14896445 1.2409723
-0.88941765 0.96578133 0.69755894 -0.561891 0.24006002 1.4643908 -0.5841093 -0.22086246
-0.047482993 1.7874537 -2.026554 0.11222251 2.6843414 -1.2684777 -1.2853178 0.6514295
-0.52954525 1.1338166 -1.0322293 1.3211648 0.45392752 0.92868805 -0.77030516 -1.4221876
1.6839265 0.8866328 -3.3760283 -0.47167182 -1.4735471 0.7985544 -1.7009549 0.21536617
-1.4506576 -0.5411262 0.6211734 0.59054637 -1.3019555 -0.16947342 0.18380645 0.47995788
-1.1401503 0.46463576 0.62473667 -0.5295642 -0.2875811 0.106318295 -0.03944251 -0.40698344
1.1834228 1.9299258 1.4836242 0.8368684 -0.7213652 -0.008511337 -0.26010743 0.6921581
1.2997001 -0.17143644 0.2749068 -0.6521282 0.30680782 1.1853276 -1.6292378 -0.56845623
0.97653455 0.03042416 0.8228704 -0.0015914609 -0.3037173 1.7104008 0.9024253 -0.34487483
0.7090221 -0.3913071 -1.1057365 1.0541855 -1.2966231 -0.666611 1.0102692 -1.6055446
0.23538901 -1.4467947 -0.6192378 -0.0834013 0.42671406 0.14711583 0.7898158 -0.6390782
-0.7393226 0.015012718 0.40199345 0.71207124 -0.00095090887 1.810342 0.3801426 -0.07763636
-1.754844 1.4662787 0.6964636 0.007315652 0.5861608 0.35423577 0.30379847 1.1887989
-1.3851472 -1.0977092 -2.288013 0.26418188 3.6319914 -0.8176181 -1.2030414 -0.61508924
1.885433 -0.54151964 -0.3002852 1.166018 -0.80696857 0.054120623 -0.7738054 0.7377396
2.6520185 -0.9260525 -1.0215869 1.9561609 1.2227827 -1.8336072 1.9353303 0.78719383
-1.4578307 -0.75880235 0.71947247 0.18186663 1.2256529 0.41620013 -0.13939396 -0.30637905
-1.8065459 0.30287257 -0.06441788 -0.6795299 0.28378436 -0.045289975 0.043332282 0.5234394
-0.3392033 1.3844577 1.2807652 2.107782 0.43747535 -0.41637558 -0.26644766 -0.15895638
0.50346625 -0.27772364 2.0061338 -1.5750023 0.5114416 0.6107834 -1.0876014 -0.29186633
00000000: 6a91 623f 8d71 99be 4c3b b8bf df67 bd3f
00000010: 8f27 373f 8f33 f23e d439 0340 f5c5 c63d
00000020: 929e a5be fa22 95be 31b2 123f a40b 9abe
00000030: e661 1b3e 54e4 f8be 77d4 1540 1c90 5240
00000040: de51 eb3e b069 3cbe 70a8 86bf 5747 903f
00000050: 2b64 a83e f78d a3bf 4fc6 2e40 f39b c73f
00000060: 1779 b03f 2ce0 18be 9204 9f3f b0e2 1e3f
00000070: 203f 34bf bfb3 673f 01d8 a7bf 7fe5 ea3f
00000080: a5d6 6c3f 2935 11c0 fb7e 98bf 2a7d 2b40
00000090: f63f fc3f 3a09 1140 89c4 3e3f 284b 8340
000000a0: 6873 08bf d1dd bebf e0be e0bf 1354 d33f
000000b0: 24b8 1040 fa79 0cbe 5663 93bf 880a c4bf
000000c0: fbe4 0040 81af 9740 79e1 ba3f 83c9 a43f
000000d0: 5a5a 37c0 faea 9a3f 9af4 79be 3e83 b040
000000e0: 7126 74c0 c35f 9cbf 7a30 e33f c38c fe3f
000000f0: 197d 39bf e57c e73d a158 5840 6979 8d40
00000100: 27c0 c4be d29d 8a3d 9c64 043f cf00 d33f
00000110: 3f6c 70c0 7f95 293f f7ae 6fbf 801b 853f
00000120: 28c9 32c0 431e 3bbf 9293 743f 6154 a03f
00000130: 7a00 953d e473 a0bd b250 2c40 353c 8ebe
00000140: 488e d0bf 847d 8d3f 58e1 293f 0b85 033f
00000150: 01d2 fdbe 1e7e f43f 6211 a53f fe7d d13f
00000160: 1a53 da3e 0925 f33f c29f 173f aeec c93f
00000170: 0927 553f 2cea 93bf 238a 18be 2ed8 9e3f
00000180: e0b0 63bf 723d 773f 3993 323f 17d8 0fbf
00000190: 4bd2 753e 2871 bb3f 3088 15bf c529 62be
000001a0: 877d 42bd 48cb e43f 10b3 01c0 ead4 e53d
000001b0: 40cc 2b40 7a5d a2bf 4b85 a4bf 15c4 263f
000001c0: 4790 07bf e720 913f 1720 84bf ee1b a93f
000001d0: 3069 e83e 80be 6d3f b832 45bf 3e0a b6bf
000001e0: e78a d73f 5efa 623f d910 58c0 f87e f1be
000001f0: 319d bcbf 106e 4c3f e4b8 d9bf f388 5c3e
00000200: 26af b9bf 3f87 0abf 3805 1f3f 0c2e 173f
00000210: 7aa6 a6bf 718a 2dbe c237 3c3e 0abd f53e
00000220: 72f0 91bf bde4 ed3e beee 1f3f 8591 07bf
00000230: d43d 93be 68bd d93d 788e 21bd 2260 d0be
00000240: 667a 973f cf07 f73f 66e7 bd3f 023d 563f
00000250: 64ab 38bf 2373 0bbc cd2c 85be 4631 313f
00000260: 935c a63f 098d 2fbe 96c0 8c3e e0f1 26bf
00000270: ea15 9d3e d1b8 973f dd8a d0bf 5986 11bf
00000280: 2bfe 793f 173c f93c a2a7 523f 9198 d0ba
00000290: d580 9bbe 6aee da3f 5805 673f 6f93 b0be
000002a0: 7982 353f 6759 c8be c688 8dbf 8def 863f
000002b0: bff7 a5bf 05a7 2abf 8050 813f 7c82 cdbf
000002c0: d109 713e 9230 b9bf 5e86 1ebf 4dce aabd
000002d0: 447a da3e 88a5 163e 5e31 4a3f a19a 23bf
000002e0: 3f44 3dbf e7f7 753c 16d2 cd3e 4d4a 363f
000002f0: 6a46 79ba 49b9 e73f 0da2 c23e d0ff 9ebd
00000300: ba9e e0bf 05af bb3f 704b 323f 23b8 ef3b
00000310: a20e 163f 645e b53e 798b 9b3e 902a 983f
00000320: 814c b1bf bc81 8cbf ce6e 12c0 d942 873e
00000330: 8c72 6840 6b4f 51bf 43fd 99bf 7d76 1dbf
00000340: de55 f13f 08a1 0abf fbbe 99be 1440 953f
00000350: 7e95 4ebf 96ad 5d3d 1c18 46bf 81dc 3c3f
00000360: acba 2940 c711 6dbf 5cc3 82bf 7b63 fa3f
00000370: 2584 9c3f a4b3 eabf e7b8 f73f 8985 493f
00000380: 329a babf df40 42bf 592f 383f 3f3b 3a3e
00000390: 32e2 9c3f 2f18 d53e 4abd 0ebe b7dd 9cbe
000003a0: e53c e7bf 1d12 9b3e 85ed 83bd acf5 2dbf
000003b0: 2f4c 913e fb81 39bd 317d 313d 2000 063f
000003c0: 0eac adbe e935 b13f 1df0 a33f e6e5 0640
000003d0: c5fc df3e 2e2f d5be d46b 88be 76c5 22be
000003e0: 2ae3 003f cb31 8ebe 7f64 0040 ad99 c9bf
000003f0: d6ed 023f 4d5c 1c3f 8636 8bbf 816f 95be

weight_ih_l0 f4 [512, 32]
0.20373905 -0.71591955 -0.04427932 0.3813995 -0.1152954 0.17122453 -0.048475638 -0.41419145
0.4428589 0.20097665 -1.4097649 -0.47990048 0.22267991 0.093459666 -0.3229589 0.59710866
1.1211786 -0.31311917 -0.1753772 -0.21535724 -0.080240846 0.35718206 -1.221602 -0.31213123
-0.17833982 0.6551347 -0.19712748 0.25957516 0.38340598 -0.28626662 -0.3254845 0.68724114
1.0691439 -0.2374431 -0.29950207 -0.43549457 -0.5380641 0.5274486 0.80439705 -0.20393744
0.5631789 -0.14728981 -0.2999821 0.08410655 0.2424743 0.4722141 -0.05614812 -0.55965483
-0.39349762 0.38594213 0.11531272 -0.20107016 0.33202338 0.3211892 -0.24428773 0.51261806
-0.39553872 0.48947215 -0.25309297 0.37117055 -0.22146942 -0.010987687 0.9074451 -0.28083465
-0.6159484 -0.13581665 -0.4430018 0.37140673 -1.4830943 0.3297751 0.44405887 -0.24255447
0.019913109 0.649573 -0.5618539 -0.76146513 0.3781856 -0.3339342 -0.053467453 -0.82096475
0.25453103 0.7797522 -0.26845884 0.04982123 1.4365327 -1.3364446 1.0995032 0.17868842
0.5380065 -0.37938952 -1.0956999 -0.29483697 -0.9855261 0.2762056 -0.38886002 0.24314052
-0.45538464 0.77861995 0.20861931 0.4767541 0.1635069 0.7780817 -0.34416056 0.4024168
-0.03926309 0.5637031 0.27650368 -0.09082023 -0.96905625 -0.04845979 0.46995527 -0.48573607
-1.0032269 -0.6357242 -0.3968473 0.41279438 0.72911847 0.31322312 -0.046019014 0.25525126
-0.30190724 0.106246464 0.18481146 0.9775736 0.5577187 0.48275843 0.10340597 0.4029975
0.14657481 0.56181717 -0.9788868 0.9758657 -1.0610251 0.04917922 -0.49220866 0.042686455
-0.6999928 0.38552386 0.00072297844 0.3894603 0.32018238 0.90582794 -0.049336992 0.4149152
-0.08538542 0.29998344 -0.565677 -0.035805162 0.36954898 -0.17792381 -0.46576196 0.38908535
0.18524137 0.49573234 0.21927817 0.0938016 -0.74190813 -0.049607594 -0.23157096 0.90772134
0.095446 0.034828644 0.07157248 1.0698708 -0.32535452 -0.061402958 -0.21216987 -0.41244394
-0.21833912 0.54535294 -0.8779263 -0.3843862 0.57452035 0.74754775 -0.9248276 -0.8137748
-0.44647938 -0.1631771 -0.96922797 -0.44445565 0.44790292 -0.40058732 0.33001378 0.6045777
0.16723542 0.33506843 0.2798732 0.8495375 -1.0237575 -0.28386152 0.066750675 0.26331672
-0.1755387 -0.18724409 -0.19915903 -0.12685052 0.34978977 0.009716223 -0.07423106 -0.08742386
-0.95847315 -0.01673325 -0.63680553 -0.5284446 -0.30787924 0.013625758 -0.28424403 0.91206485
0.11673236 1.0879776 0.4662537 -0.4180654 -0.46791402 -0.2633417 -0.29073617 0.14755246
-0.28495476 0.28295368 -0.13626261 -0.51947224 0.44780415 0.5255522 0.09385185 0.613497
-0.4068592 -0.3024331 -0.67528987 -0.25753164 -0.56670755 0.16171539 -1.151914 -1.1269132
-0.18996847 -0.28837246 -0.0017623133 -0.64137983 -0.1395148 0.26513296 0.22885157 0.42065385
0.5580349 -0.97146153 -0.100851744 1.2134635 0.2386087 -0.0053600357 0.13731971 -0.28593984
-0.6034474 -0.9219717 0.2700441 -0.066426456 0.6219275 -0.29657087 -0.3955065 -0.11386417
00000000: f8a0 503e 8146 37bf 3b5e 35bd cc46 c33e
00000010: ff1f ecbd 7c55 2f3e 648e 46bd e710 d4be
00000020: 67be e23e d3cc 4d3e 2d73 b4bf 84b5 f5be
00000030: 3406 643e c867 bf3d de5a a5be 1ddc 183f
00000040: c882 8f3f 2851 a0be 1596 33be 9c86 5cbe
00000050: 5055 a4bd 91e0 b63e 745d 9cbf aacf 9fbe
00000060: b79e 36be e8b6 273f c9db 49be 09e7 843e
00000070: ca4d c43e 8a91 92be e8a5 a6be 09ef 2f3f
00000080: b5d9 883f 4924 73be 5658 99be 25f9 debe
00000090: 92be 09bf df06 073f f7ec 4d3f fad4 50be
000000a0: 7e2c 103f 24d3 16be 4197 99be 0e40 ac3d
000000b0: 2f4b 783e 0cc6 f13e 92fb 65bd 8a45 0fbf
000000c0: 8578 c9be 359a c53e 1329 ec3d 56e5 4dbe
000000d0: f8fe a93e e972 a43e 9026 7abe f03a 033f
000000e0: 0d84 cabe 189c fa3e 6795 81be 110a be3e
000000f0: e1c8 62be b305 34bc 524e 683f 8fc9 8fbe
00000100: cbae 1dbf 8513 0bbe 22d1 e2be 0629 be3e
00000110: 09d6 bdbf 48d8 a83e af5b e33e 3360 78be
00000120: d120 a33c 6b4a 263f a8d5 0fbf 61ef 42bf
00000130: 8ba1 c13e 6cf9 aabe b000 5bbd bf2a 52bf
00000140: e451 823e d79d 473f 7073 89be 5911 4c3d
00000150: 4ee0 b73f 9e10 abbf 85bc 8c3f 19fa 363e
00000160: cbba 093f 583f c2be e53f 8cbf dff4 96be
00000170: 704b 7cbf d26a 8d3e a918 c7be d4f9 783e
00000180: 2d28 e9be a353 473f 4da0 553e 1d19 f43e
00000190: 5a6e 273e 5d30 473f d035 b0be 9309 ce3e
000001a0: 55d2 20bd d94e 103f e491 8d3e f5ff b9bd
000001b0: 1214 78bf c67d 46bd fa9d f03e 66b2 f8be
000001c0: bd69 80bf d2be 22bf 922f cbbe c959 d33e
000001d0: 82a7 3a3f c85e a03e 6f7e 3cbd 4bb0 823e
000001e0: 9693 9abe bf97 d93d 373f 3d3e 4342 7a3f
000001f0: a7c6 0e3f 1d2c f73e 82c6 d33d b055 ce3e
00000200: b517 163e 40d3 0f3f 5398 7abf 56d2 793f
00000210: accf 87bf 2670 493d c602 fcbe fed7 2e3d
00000220: ba32 33bf 6263 c53e 4386 3d3a 5767 c73e
00000230: f2ee a33e 57e4 673f 9615 4abd c46f d43e
00000240: 8dde aebd 6e97 993e 35d0 10bf 6fa8 12bd
00000250: 8635 bd3e a931 36be 5a78 eebe 3236 c73e
00000260: eaaf 3d3e a1d0 fd3e 758a 603e 0e1b c03d
00000270: b1ed 3dbf 5531 4bbd f020 6dbe 6d60 683f
00000280: 3179 c33d 7ba8 0e3d 9894 923d 87f1 883f
00000290: de94 a6be ab81 7bbd 0f43 59be da2b d3be
000002a0: 4a94 5fbe 409c 0b3f c7bf 60bf 45ce c4be
000002b0: c413 133f 4a5f 3f3f 80c1 6cbf 8c53 50bf
000002c0: f298 e4be e617 27be 531f 78bf b18f e3be
000002d0: 8853 e53e c819 cdbe 91f7 a83e 9bc5 1a3f
000002e0: c33f 2b3e 178e ab3e 8a4b 8f3e 4a7b 593f
000002f0: 7c0a 83bf 4c56 91be 94b4 883d 73d1 863e
00000300: 6bc0 33be eabc 3fbe 58f0 4bbe 1ae5 01be
00000310: a517 b33e cb30 1f3c 7406 98bd 480b b3bd
00000320: 7f5e 75bf 2b14 89bc b005 23bf 2548 07bf
00000330: 59a2 9dbe 923e 5f3c 6f88 91be 157d 693f
00000340: 6011 ef3d da42 8b3f ceb8 ee3e ab0c d6be
00000350: 6d92 efbe b9d4 86be 5fdb 94be fe17 173e
00000360: 97e5 91be 4edf 903e 6d88 0bbe 22fc 04bf
00000370: 9646 e53e 978a 063f 6635 c03d 240e 1d3f
00000380: d94f d0be 83d8 9abe ccdf 2cbf 30db 83be
00000390: bf13 11bf b898 253e eb71 93bf b13e 90bf
000003a0: 1887 42be 8ea5 93be 6cfd e6ba 7831 24bf
000003b0: f8dc 0ebe 82bf 873e 1158 6a3e f15f d73e
000003c0: 60db 0e3f b4b1 78bf 5c8b cebd c652 9b3f
000003d0: d755 743e 3da3 afbb 8a9d 0c3e b566 92be
000003e0: 877b 1abf 5606 6cbf 3843 8a3e 980a 88bd
000003f0: a436 1f3f 23d8 97be d47f cabe 9e31 e9bd

weight_hh_l0 f4 [512, 128]
0.3449195 -0.14930473 0.89348835 0.047871817 0.43369696 -0.32468992 0.32750902 -0.5700113
0.12274037 0.62086856 0.73063534 -0.17034607 0.6402483 0.20196672 0.44798723 1.1041204
0.6359774 0.36921814 -0.19454852 -0.60183656 -1.4126623 0.3631878 -0.47091967 -0.15922846
-0.8282927 0.1452832 -1.0481545 0.4377538 0.5045411 -0.9244844 0.3976382 -0.5015613
0.32618156 0.043471627 0.07568036 0.15199941 1.130428 0.37338808 -0.8471628 -0.43904394
-1.1851673 -0.6523057 -0.8327136 -0.39732853 -0.33755004 -0.64977926 -0.52265155 -0.47183478
-0.31946066 -0.7197914 1.0147066 0.19475251 -0.5513387 0.1812883 -0.23982769 0.09292855
0.05457439 -0.19757253 0.27363294 0.13719873 -0.59041303 -0.23091078 0.25238037 0.16554433
0.10893378 -0.1631086 -0.45780718 0.44503525 1.4487439 -0.22899574 0.163986 -0.9972327
-0.23710273 0.46428055 1.2016531 0.30389774 0.4932592 0.20856035 -0.37707287 -0.26353464
0.31945 0.63506114 0.49475744 1.5799203 0.64334387 0.26868778 -0.35541147 0.035793517
0.73124826 0.4266791 1.1258383 0.82353395 -0.5975794 -0.117564805 0.52714705 -0.4746394
0.49706528 -0.33287382 -1.0166171 -0.27053118 -0.060747854 -0.18344475 -0.17392729 0.02421526
-0.13998014 0.2771403 -0.57792443 0.5378068 -0.008989963 0.30035248 0.13797234 0.5240567
0.12717842 0.5695453 0.62553936 0.62349844 -0.59796333 -0.34809935 0.087252416 -0.38117546
-0.3276921 0.27146775 -0.24203217 0.033141345 0.1001601 0.6035843 0.06935737 -0.11537028
-0.21674505 -0.693662 0.19726795 0.27024448 -0.09136785 -0.018233065 0.5108877 0.2180155
0.8171791 -0.19541535 -0.06790593 0.63558286 -0.7578413 0.1669385 -0.51977843 0.1330292
-0.72927684 -0.34818572 -0.60011876 -0.28362215 -0.086865865 -0.42616808 -0.09202017 1.835117
0.48025295 -0.22870313 0.29987964 0.22502644 0.2150894 -0.48336557 -0.3119224 0.31808317
-1.2537407 -0.21219866 -0.14139861 0.32459778 0.24589236 -1.138029 -0.45620513 0.11766845
0.04596988 0.5773594 0.4319358 0.91017056 0.17271623 -0.33866018 0.13369457 -0.45222
0.3837734 -0.75514203 0.34429482 -0.009604687 -0.30166364 -0.17141534 0.13201086 -0.30230775
0.17661391 -0.52073777 -0.007526873 -0.07454859 0.99199766 0.0089512365 -0.5833937 0.012832652
-0.07144201 -0.061576903 -0.15866818 -0.392812 -1.1705807 0.3602562 -0.18745622 0.8855479
-0.2115286 0.71818376 1.018534 -0.7378277 0.3002788 -0.24841063 -0.17809016 0.41181657
-0.5119077 0.096126415 -0.48119998 0.3662037 0.26063016 -0.5608272 0.07689465 0.813177
0.08012402 -0.6133841 0.009561407 -0.54877746 0.20731 -1.1835448 0.09436011 0.122748524
-0.09413338 0.34536412 -0.05351471 -0.005326948 -0.88989466 -0.4906837 0.48808208 0.34869695
-0.22405882 0.7890482 0.37853044 -0.41548687 -0.5436089 0.075542174 0.6865397 -0.23164621
-0.11135955 0.7497299 -0.20333147 -0.26843077 0.16448343 -0.0056688506 0.8235046 0.1432214
0.9139205 -0.07589186 -0.9420591 -0.5685514 -0.59655344 0.15134934 -0.8061527 -0.6897185
00000000: 4a99 b03e 57e3 18be a7bb 643f 3d15 443d
00000010: 870d de3e c23d a6be 43af a73e 43ec 11bf
00000020: 4e5f fb3d 3ef1 1e3f eb0a 3b3f 336f 2ebe
00000030: 50e7 233f 5dd0 4e3e 955e e53e d153 8d3f
00000040: 6acf 223f 290a bd3e ba37 47be f611 1abf
00000050: 1ed2 b4bf c0f3 b93e 621c f1be c90c 23be
00000060: fe0a 54bf 1fc5 143e ed29 86bf 4421 e03e
00000070: 9b29 013f 02ab 6cbf 3c97 cb3e 5266 00bf
00000080: 4501 a73e 4e0f 323d 4efe 9a3d bca5 1b3e
00000090: ddb1 903f b92c bf3e a9df 58bf 5eca e0be
000000a0: 90b3 97bf 82fd 26bf b82c 55bf a56e cbbe
000000b0: 5cd3 acbe ef57 26bf 7ecc 05bf 5494 f1be
000000c0: 5990 a3be 4044 38bf e8e1 813f 346d 473e
000000d0: 8824 0dbf a4a3 393e 6495 75be 5351 be3d
000000e0: 6589 5f3d 7450 4abe 9e19 8c3e d37d 0c3e
000000f0: 4f25 17bf e073 6cbe 0038 813e 7484 293e
00000100: ac18 df3d f105 27be b465 eabe a9db e33e
00000110: 7170 b93f dc7d 6abe f2eb 273e a44a 7fbf
00000120: 0fcb 72be 2eb6 ed3e c5cf 993f 7c98 9b3e
00000130: 788c fc3e d890 553e b20f c1be 03ee 86be
00000140: f38e a33e 5e93 223f d950 fd3e d43a ca3f
00000150: 2fb2 243f 7291 893e 7ef8 b5be 399c 123d
00000160: 1633 3b3f af75 da3e 781b 903f 1fd3 523f
00000170: f7fa 18bf d1c5 f0bd 1cf3 063f ef03 f3be
00000180: 577f fe3e 706e aabe 8220 82bf 1083 8abe
00000190: bed2 78bd f1d8 3bbe ff19 32be 155f c63c
000001a0: f456 0fbe 55e5 8d3e dbf2 13bf b5ad 093f
000001b0: a34a 13bc cdc7 993e 9f48 0d3e 9428 063f
000001c0: 0f3b 023e b9cd 113f 5923 203f 989d 1f3f
000001d0: 2014 19bf 143a b2be 65b1 b23d 6e29 c3be
000001e0: 42c7 a7be d2fd 8a3e 48d7 77be 38bf 073d
000001f0: bd20 cd3d 8084 1a3f 3d0b 8e3d 4147 ecbd
00000200: 6af2 5dbe d593 31bf 9c00 4a3e 7c5d 8a3e
00000210: 111f bbbd 825d 95bc 89c9 023f 753f 5f3e
00000220: a632 513f f61a 48be 4412 8bbd 8fb5 223f
00000230: e301 42bf edf1 2a3e 3310 05bf ce38 083e
00000240: e3b1 3abf 6645 b2be 62a1 19bf ec36 91be
00000250: bbe6 b1bd b432 dabe 1275 bcbd 1de5 ea3f
00000260: b7e3 f53e 2731 6abe d389 993e 556d 663e
00000270: 6540 5c3e b17b f7be 4bb4 9fbe ccdb a23e
00000280: 937a a0bf 9b4a 59be ccca 10be ae31 a63e
00000290: 35cb 7b3e efaa 91bf b893 e9be 28fc f03d
000002a0: ea4a 3c3d d3cd 133f b026 dd3e f000 693f
000002b0: 86dc 303e de64 adbe 3be7 083e 6189 e7be
000002c0: f27d c43e fd50 41bf 6947 b03e fa5c 1dbc
000002d0: a873 9abe 8187 2fbe db2d 073e 15c8 9abe
000002e0: 47da 343e 124f 05bf fda3 f6bb eeac 98bd
000002f0: 8ff3 7d3f 35a8 123c 4a59 15bf 0b40 523c
00000300: 3050 92bd 1038 7cbd e979 22be a81e c9be
00000310: 97d5 95bf 8073 b83e 86f4 3fbe 44b3 623f
00000320: f49a 58be e4da 373f 525f 823f 47e2 3cbf
00000330: 25be 993e 5b5f 7ebe 445d 36be 9fd9 d23e
00000340: 620c 03bf eddd c43d d85f f6be 0d7f bb3e
00000350: 5171 853e 5f92 0fbf f17a 9d3d 5e2c 503f
00000360: 1018 a43d be06 1dbf 73a7 1c3c ae7c 0cbf
00000370: 1349 543e 657e 97bf e03f c13d 9463 fb3d
00000380: 00c9 c0bd 91d3 b03e 3e32 5bbd ae8d aebb
00000390: 23d0 63bf e53a fbbe e5e5 f93e 6888 b23e
000003a0: ad6f 65be 10ff 493f bece c13e b2ba d4be
000003b0: f429 0bbf dbb5 9a3d 11c1 2f3f aa34 6dbe
000003c0: 7a10 e4bd 4cee 3f3f 2036 50be c26f 89be
000003d0: 586e 283e c4c1 b9bb 33d1 523f a1a8 123e
000003e0: b2f6 693f 316d 9bbd c92a 71bf 968c 11bf
000003f0: bab7 18bf 52fb 1a3e 0660 4ebf 6491 30bf

bias_ih_l0 f4 [512]
0.21432582 0.5651948 1.4101274 0.8922607 0.63396585 0.9668442 0.7563039 0.37376443
-0.1756097 0.1932868 0.50388247 -0.015365585 0.34070307 0.68306345 -0.1933685 0.099149026
0.43492928 0.64385986 0.46786886 0.39038467 0.7832832 0.39691448 0.76001906 0.8012328
0.57100594 0.43556172 0.77107805 -0.41350877 0.07352291 0.21771094 0.3323763 -0.2444621
0.8685496 0.8435425 1.0355487 0.5970092 0.37005904 0.23577523 0.8698783 -0.23813963
0.5581831 0.1970824 0.068329774 1.0699 0.80166113 0.29124942 0.28178212 0.81335807
0.38915503 0.6401628 0.5725462 0.62948287 0.22338262 0.4895812 0.2911242 0.4124857
0.32381177 0.49161574 0.04941582 0.13242418 0.24698265 0.13687539 0.7795239 0.90796137
0.21926104 0.20984086 0.33474112 0.3754304 0.16349511 0.23680848 0.14204848 0.71827585
0.5308522 0.85270154 0.54685885 0.15283157 -0.4164611 0.68628126 0.96531034 0.83587426
0.6728083 0.78751796 0.2097436 0.3257439 0.37190226 0.1517042 1.0672446 0.88453186
0.3354052 -0.38622707 0.36610866 0.69967014 0.65461856 0.10129538 0.28956866 -0.10944004
0.30970302 0.26399422 1.1162359 0.17892946 0.8308615 -0.16504197 0.9618411 0.076178186
1.2913197 0.6318708 0.05922712 0.2553607 0.563636 0.31389463 0.67509234 1.0065705
0.14351574 0.12666184 0.589987 0.3590601 0.35316017 0.27276644 0.754033 0.57654977
0.87019986 0.6414556 0.50998366 0.2429926 1.0379096 0.6087034 1.244916 0.090884045
-0.40234306 -0.29096913 -0.21756043 -0.73300284 -0.8762613 -0.5065269 -0.74545586 -0.15743215
0.28454065 -0.46426922 0.046652738 -0.10300447 -0.077609114 0.0063912272 0.12687404 -0.45886007
-0.51216274 -0.6025071 0.93038356 0.21279894 -0.5407551 0.29948062 -0.22403063 -0.4030239
-0.6624422 -0.97427434 -0.6917919 0.09855285 -0.6220811 -0.55540174 0.003785633 0.027109168
-0.50326055 -0.7255627 -0.030120678 -0.3324601 -0.07316883 -1.0371394 -0.5825583 -0.47735882
-0.5300513 -0.56735134 -0.48867428 -0.19541934 -0.095799156 -0.04621155 0.1850645 -0.38823792
-0.96550494 0.055712268 -0.5616344 -0.57771635 -0.26968893 0.014825866 -0.5278453 -0.56407315
-0.26632637 -0.37274054 -0.5072029 -0.4037402 -0.27762705 -0.34567052 -0.8256154 -0.88211054
-0.8355939 -0.17394555 -0.11216676 -0.49309126 -0.46829575 0.04975784 -0.28262207 -0.7218575
-0.36464548 -0.15395123 0.6334672 -0.39784586 0.1301824 -0.5549838 0.44717506 -0.31640404
-0.4502949 -0.13309307 -0.4392581 -0.080482475 -0.7515163 0.04569414 -0.4928735 -0.089407325
-0.48304632 -0.36637422 -0.692293 -0.7126753 0.09318309 0.21233623 -0.87758833 0.3258329
-0.57192165 -0.18572167 -0.7027979 -0.49452895 -0.58129406 -0.30835435 0.034307446 -0.0805753
-0.13023198 -0.27270797 0.0894534 -0.20937105 -0.6061552 -0.22791831 -0.48804933 -0.7350387
-0.10582032 0.45037895 -0.82502717 -0.4356364 -0.25133428 0.37319207 -0.5597574 -0.29115927
-0.681535 -1.0300916 0.024703031 -0.19704978 -0.58791083 -0.020100307 -0.80064386 0.028308844
00000000: 3a78 5b3e 9bb0 103f 0e7f b43f 326b 643f
00000010: 964b 223f 1a83 773f 229d 413f 0d5e bf3e
00000020: 07d3 33be faec 453e 71fe 003f efbf 7bbc
00000030: a270 ae3e 3fdd 2e3f 6402 46be a50e cb3d
00000040: 0daf de3e 00d4 243f 828c ef3e 80e0 c73e
00000050: 3f85 483f 6038 cb3e 9c90 423f 981d 4d3f
00000060: 722d 123f f201 df3e 5f65 453f 6cb7 d3be
00000070: 2e93 963d 9eef 5e3e 3a2d aa3e 4654 7abe
00000080: 4459 5e3f 67f2 573f dc8c 843f 98d5 183f
00000090: 6178 bd3e 106f 713e 58b0 5e3f e0da 73be
000000a0: 16e5 0e3f f8cf 493e 7bf0 8b3d 7cf2 883f
000000b0: aa39 4d3f a51e 953e bf45 903e 3c38 503f
000000c0: 543f c73e b6e1 233f 6392 123f ca25 213f
000000d0: 6abe 643e 63aa fa3e 3b0e 953e 5331 d33e
000000e0: a8ca a53e 0fb5 fb3e 3e68 4a3d 349a 073e
000000f0: 05e9 7c3e 1029 0c3e e18e 473f 2870 683f
00000100: f785 603e 86e0 563e 3063 ab3e 6a38 c03e
00000110: 436b 273e ec7d 723e 2875 113e ede0 373f
00000120: eee5 073f a64a 5a3f f1fe 0b3f e17f 1c3e
00000130: 643a d5be 21b0 2f3f 941e 773f dbfb 553f
00000140: 2a3d 2c3f c79a 493f 07c7 563e e8c7 a63e
00000150: f969 be3e 5958 1b3e 799b 883f ae70 623f
00000160: 3bba ab3e 8ebf c5be 9872 bb3e 951d 333f
00000170: 1595 273f f473 cf3d 5842 943e 1a22 e0bd
00000180: 6591 9e3e 402a 873e d1e0 8e3f 4939 373e
00000190: 57b3 543f c300 29be 383b 763f 4f03 9c3d
000001a0: f749 a53f 49c2 213f 2398 723d a3be 823e
000001b0: 734a 103f ccb6 a03e dad2 2c3f 4dd7 803f
000001c0: caf5 123e a4b3 013e 6309 173f bad6 b73e
000001d0: 69d1 b43e 0ba8 8b3e 4f08 413f c498 133f
000001e0: 6bc5 5e3f 6f36 243f 4a8e 023f 0dd3 783e
000001f0: 39da 843f fcd3 1b3f 6859 9f3f 6a21 ba3d
00000200: e9ff cdbe e8f9 94be 29c8 5ebe 13a6 3bbf
00000210: a952 60bf bfab 01bf 32d6 3ebf e535 21be
00000220: 50af 913e b2b4 edbe f116 3f3d 02f4 d2bd
00000230: 87f1 9ebd 806d d13b 45eb 013e b5ef eabe
00000240: 191d 03bf e83d 1abf 9e2d 6e3f f7e7 593e
00000250: ed6e 0abf 8655 993e 4968 65be 2659 cebe
00000260: d095 29bf 0b6a 79bf 4619 31bf 14d6 c93d
00000270: b540 1fbf cf2e 0ebf 6218 783b 0c14 de3c
00000280: afd5 00bf 7abe 39bf a4bf f6bc 3638 aabe
00000290: 8ad9 95bd fcc0 84bf 8a22 15bf 6068 f4be
000002a0: 71b1 07bf f03d 11bf 8433 fabe 021c 48be
000002b0: 5932 c4bd 5248 3dbd 8c81 3d3e 1fc7 c6be
000002c0: 552b 77bf 8c32 643d 46c7 0fbf 38e5 13bf
000002d0: ab14 8abe 30e8 723c df20 07bf 1967 10bf
000002e0: ee5b 88be d9d7 bebe 0dd8 01bf 09b7 cebe
000002f0: 2225 8ebe bafb b0be 885b 53bf ffd1 61bf
00000300: 7be9 55bf c81e 32be b0b7 e5bd 7576 fcbe
00000310: 76c4 efbe e0ce 4b3d d7b3 90be a7cb 38bf
00000320: d0b2 babe 64a5 1dbe e82a 223f 74b2 cbbe
00000330: 894e 053e 6b13 0ebf 21f4 e43e b6ff a1be
00000340: 0e8d e6be 8d49 08be 70e6 e0be ffd3 a4bd
00000350: 5f63 40bf c729 3b3d ea59 fcbe 301b b7bd
00000360: d951 f7be 6795 bbbe 1d3a 31bf e371 36bf
00000370: c7d6 be3d ab6e 593e a1a9 60bf 92d3 a63e
00000380: 7569 12bf d22d 3ebe 90ea 33bf e632 fdbe
00000390: b0cf 14bf 9fe0 9dbe f785 0c3d aa04 a5bd
000003a0: 885b 05be 61a0 8bbe 5833 b73d 5d65 56be
000003b0: fd2c 1bbf 6b63 69be 9ae1 f9be 7f2b 3cbf
000003c0: 53b8 d8bd 1298 e63e fb34 53bf bc0b dfbe
000003d0: e3ae 80be 0813 bf3e 434c 0fbf d412 95be
000003e0: 1479 2ebf 0bda 83bf 035e ca3c 6bc7 49be
000003f0: 5381 16bf 66a9 a4bc fff6 4cbf f3e7 e73c

bias_hh_l0 f4 [512]
0.24983099 0.5203661 1.4515353 0.79683846 0.6297886 0.98009604 0.67840457 0.33358672
-0.17216669 0.22922306 0.50596565 0.0001707884 0.43557137 0.67668056 -0.09301057 0.037566718
0.36936647 0.60699576 0.46354392 0.51590794 0.8841451 0.3035585 0.8175279 0.7489094
0.55034053 0.4585852 0.86175615 -0.43600568 0.042317748 0.13441281 0.19581544 -0.21565376
0.9975093 0.78613615 0.99498266 0.5188317 0.38567472 0.16732304 0.80064833 -0.13766626
0.50548345 0.049959198 0.044964116 1.0192792 0.74623466 0.28407043 0.3339203 0.7747735
0.5033371 0.63083965 0.47376615 0.6785052 0.26223373 0.3658711 0.1711861 0.3952667
0.26203084 0.38384593 0.18347965 0.2287313 0.40005895 0.13698955 0.8008372 0.8889485
0.3066338 0.116693586 0.4073895 0.24207395 0.13746184 0.24428704 0.07582613 0.7662612
0.47745 0.74399346 0.64550465 0.0909709 -0.32777315 0.803699 0.9389274 0.6890036
0.58784676 0.7461624 0.15320593 0.2553691 0.37893888 0.3230223 1.0246645 0.88363016
0.45700127 -0.30503383 0.31499705 0.6928979 0.7766149 0.066384055 0.40017924 -0.0042441217
0.28362 0.27175573 1.1918818 0.07929111 0.83689386 -0.31021273 0.9674273 0.09443451
1.259417 0.5851975 0.18458143 0.33858132 0.45009837 0.362581 0.6871897 0.98195076
0.24460356 0.13274705 0.6059732 0.36448258 0.33404976 0.33833453 0.84520185 0.59792125
0.86879015 0.58869666 0.46131727 0.4193423 0.9442324 0.6256295 1.2255499 0.07751055
-0.2997059 -0.21603757 -0.12284891 -0.6343278 -0.74067885 -0.52104044 -0.7913924 -0.08021188
0.31686088 -0.4760625 0.06190306 -0.23310973 -0.15798815 0.13160044 0.10661478 -0.43729743
-0.45376647 -0.64462066 0.82996565 0.17553443 -0.48966545 0.17609046 -0.33413607 -0.4164725
-0.69321066 -1.1190221 -0.67489487 0.047216352 -0.61849004 -0.7119946 -0.08823385 -0.048950832
-0.5054617 -0.6282371 -0.026009506 -0.2924928 0.020742478 -1.0804076 -0.5644884 -0.33368227
-0.46326926 -0.47229546 -0.44495308 -0.3003497 -0.21425158 -0.036166638 0.05179172 -0.4164972
-1.0383047 0.028126996 -0.49505195 -0.6776109 -0.18139432 0.026343383 -0.5015665 -0.5799145
-0.29003185 -0.36065316 -0.48962635 -0.49908015 -0.4046786 -0.34720966 -0.85607916 -0.8488344
-0.8461131 -0.18577452 -0.20803645 -0.61202747 -0.45805877 -0.10378461 -0.31734872 -0.730679
-0.23418173 -0.16891257 0.6873739 -0.36706528 0.040154383 -0.4556359 0.4653 -0.23283483
-0.44849706 -0.1794764 -0.4594456 -0.06579288 -0.7297595 0.054380856 -0.605388 -0.16522849
-0.42560363 -0.3665089 -0.6675632 -0.8177439 -0.025527975 0.14621365 -0.8859724 0.17760263
-0.51424026 -0.16292797 -0.7164133 -0.38084716 -0.6442846 -0.34416643 0.12991391 -0.012393151
-0.09835545 -0.40609244 0.11457558 -0.3223214 -0.54662234 -0.23792423 -0.55908674 -0.61500114
-0.050826512 0.5146957 -0.7258619 -0.4255401 -0.31101954 0.22396754 -0.6175746 -0.19247913
-0.6788294 -1.0505314 0.04284718 -0.21969782 -0.65944 -0.0041259737 -0.8292084 0.09155155
00000000: b2d3 7f3e b636 053f e9cb b93f 9bfd 4b3f
00000010: d339 213f 93e7 7a3f ecab 2d3f e1cb aa3e
00000020: 774c 30be 73b9 6a3e f786 013f a915 3339
00000030: 3603 df3e f03a 2d3f 537c bebd 8fdf 193d
00000040: 9a1d bd3e 1364 1b3f a155 ed3e 8b12 043f
00000050: 5557 623f 056c 9b3e 8249 513f 87b8 3f3f
00000060: 1ee3 0c3f aecb ea3e 0d9c 5c3f 233c dfbe
00000070: 6055 2d3d 83a3 093e d883 483e 57d4 5cbe
00000080: c55c 7f3f 3840 493f 2fb7 7e3f 27d2 043f
00000090: 2877 c53e bb56 2b3e 4af7 4c3f 62f8 0cbe
000000a0: 5d67 013f 04a2 4c3d 4b2c 383d be77 823f
000000b0: 3c09 3f3f ae71 913e 9af7 aa3e 8e57 463f
000000c0: b3da 003f b57e 213f 7a91 f23e 84b2 2d3f
000000d0: 8043 863e 7553 bb3e 694b 2f3e 6660 ca3e
000000e0: e828 863e 7487 c43e 17e2 3b3e 8a38 6a3e
000000f0: 87d4 cc3e fd46 0c3e ab03 4d3f 2192 633f
00000100: 1bff 9c3e 0cfd ee3d 5b95 d03e 3ce2 773e
00000110: ccc2 0c3e 6226 7a3e bb4a 9b3d b229 443f
00000120: 5474 f43e 5b76 3e3f cb3f 253f f44e ba3d
00000130: e2d1 a7be 38bf 4d3f 8c5d 703f 8a62 303f
00000140: 207d 163f 8004 3f3f 04e2 1c3e bdbf 823e
00000150: 4704 c23e 2e63 a53e 3528 833f 9635 623f
00000160: 12fc e93e 652d 9cbe 4b47 a13e c261 313f
00000170: 3cd0 463f 5df4 873d 4be4 cc3e 4612 8bbb
00000180: a436 913e 9123 8b3e 958f 983f 6163 a23d
00000190: ad3e 563f 34d4 9ebe 51a9 773f e166 c13d
000001a0: 9434 a13f 81cf 153f ea02 3d3e 885a ad3e
000001b0: 4b73 e63e 38a4 b93e aaeb 2f3f 2061 7b3f
000001c0: 5b79 7a3e d8ee 073e 0f21 1b3f 769d ba3e
000001d0: 9208 ab3e 2f3a ad3e 265f 583f 5e11 193f
000001e0: 0869 5e3f d3b4 163f c731 ec3e 09b4 d63e
000001f0: 37b9 713f 4129 203f d2de 9c3f dabd 9e3d
00000200: 0d73 99be f438 5dbe 3698 fbbd 4f63 22bf
00000210: 219d 3dbf e862 05bf b198 4abf 2046 a4bd
00000220: 973b a23e 77be f3be 108e 7d3d 51b4 6ebe
00000230: a5c7 21be 44c2 063e da58 da3d 73e5 dfbe
00000240: 1454 e8be dc05 25bf a178 543f 4cbf 333e
00000250: 6eb5 fabe 0f51 343e e213 abbe e23b d5be
00000260: 4176 31bf 1e3c 8fbf e9c5 2cbf ef65 413d
00000270: 5d55 1ebf 4745 36bf f3b3 b4bd ab80 48bd
00000280: f065 01bf 26d4 20bf e311 d5bc 9ec1 95be
00000290: 21ec a93c cc4a 8abf 5082 10bf 67d8 aabe
000002a0: a131 edbe b6d0 f1be e4d0 e3be 70c7 99be
000002b0: c464 5bbe 7823 14bd 8e23 543d 1f3f d5be
000002c0: 2be7 84bf 966a e63c 7377 fdbe e877 2dbf
000002d0: 6fbf 39be 14ce d73c aa66 00bf 4775 14bf
000002e0: 0e7f 94be 88a7 b8be 4eb0 fabe 6f87 ffbe
000002f0: 0932 cfbe 77c5 b1be 0128 5bbf 364d 59bf
00000300: de9a 58bf ad3b 3ebe 8207 55be d5ad 1cbf
00000310: ae86 eabe 078d d4bd 887b a2be c70d 3bbf
00000320: 56cd 6fbe 6bf7 2cbe bcf7 2f3f fbef bbbe
00000330: ec78 243d 1c49 e9be cd3b ee3e 416c 6ebe
00000340: 68a1 e5be a9c8 37be 743c ebbe 6bbe 86bd
00000350: 85d1 3abf 76be 5e3d b5fa 1abf a831 29be
00000360: b8e8 d9be 0ea7 bbbe 6ce5 2abf aa57 51bf
00000370: 0b20 d1bc 08b9 153e 16cf 62bf 77dd 353e
00000380: 40a5 03bf 97d6 26be dd66 37bf 66fe c2be
00000390: d6ef 24bf 9536 b0be 2708 053e a50c 4bbc
000003a0: 956e c9bd 59eb cfbe 9aa6 ea3d 4f07 a5be
000003b0: 71ef 0bbf 69a2 73be 4f20 0fbf b770 1dbf
000003c0: 762f 50bd 19c3 033f 16d2 39bf 64e0 d9be
000003d0: f43d 9fbe bf57 653e 5e19 1ebf 4019 45be
000003e0: c3c7 2dbf d077 86bf 8680 2f3d 77f8 60be
000003f0: 0fd1 28bf 2d33 87bb 0047 54bf 617f bb3d

weight_ih_l1 f4 [512, 128]
0.0041459827 -0.03248109 2.0107093 -0.518271 -0.2636846 0.5972024 0.19562893 0.4985872
0.010420837 1.5004436 -0.5644828 0.50052804 -0.5924694 -0.288799 0.93575287 -0.093683355
-0.5845013 -0.07355694 -0.27114743 -0.5590863 -0.39961007 -1.2486464 -0.15508357 -0.72452533
-0.54248613 -0.294721 -0.14617132 0.5868165 0.18436947 1.1819785 0.012779714 1.2732662
-0.10108789 -0.29888994 0.36663684 -0.16525893 0.6787646 -0.29569787 -0.44745603 0.24558051
0.5226753 -1.3510227 -1.1486884 0.9359492 -0.5432859 0.2621393 0.08853555 -0.0025977406
0.53805953 -0.08691111 -0.56115615 -0.16010277 -0.2993045 -0.21898092 -0.22849825 -0.55144024
0.82426184 -0.7433847 -0.93143713 -0.120504215 0.16855337 -0.18866843 1.0411218 1.3553569
0.04628036 0.22484781 -0.30299646 0.10751128 0.20451075 -0.1289007 -0.19313397 -0.2232606
-0.15761639 0.038094092 -0.041183505 -0.589911 0.52285117 0.75607497 -0.3917074 -0.88766056
0.29467672 0.08840545 0.1699594 0.90152055 0.45076117 -0.32149482 -0.43860987 0.7912083
-0.09737678 0.69129753 -0.3564665 -0.6470746 0.16596809 0.48144424 -0.8617741 -0.08880669
1.0998324 -0.08177671 0.3260514 0.19957899 0.41431004 0.11489014 1.2358297 0.31186086
-1.1447366 -0.09490116 -1.0473627 0.4192826 0.9352886 0.4577346 0.19372192 -1.3517797
-0.5389634 1.3382672 -0.29568666 0.76104915 -0.044713847 0.11400625 -0.17038856 0.96133137
-0.17182139 -0.18340658 -0.4124113 -0.64126855 -0.3591745 0.48525947 0.5070506 0.23023695
1.3874056 -0.011918139 0.61599356 -1.1268009 0.3832633 -0.5845874 0.98922884 -0.21969122
0.5109761 0.19945547 -0.41999277 0.17344746 0.34347996 1.0817055 0.16386996 0.16510063
0.73522377 0.52197695 -0.42171732 0.6431785 -0.19342911 0.23032628 -0.3200386 0.002711253
0.5808429 -0.6481082 1.2580209 -0.2163919 -0.23703296 0.53115016 0.22882405 0.26599023
-0.62531465 -0.8068694 0.39686656 -0.37955865 0.043465264 -0.13913177 0.062072467 -0.20315911
-0.6199928 0.28211033 0.909453 -0.3239342 -0.43964893 0.0062039974 0.24894954 1.582721
-0.32508802 0.4689455 1.0800359 0.33059 0.89888036 -0.6475493 0.33796886 0.51189536
-0.22381838 -0.31346616 0.50892997 -0.046019327 -0.025662458 0.34351173 1.1257368 0.28891927
-0.6260171 0.098202735 0.1613853 -0.88108426 -0.36421084 1.6201093 0.003084854 -0.6884915
-0.9394368 0.9319206 1.2279682 -0.9501014 -0.016578533 -0.34623212 0.26790926 -0.011724131
0.108002044 0.25542274 -0.2972707 -0.08068043 -0.26527515 0.07985439 0.41606003 -0.96036994
-0.0013179772 0.20498568 -0.6447044 -0.22594085 -0.073507205 -0.7681571 -0.6509425 0.04116366
-0.33999345 -0.22267468 1.0312204 0.7859133 0.027876979 -0.5517933 0.8080755 -0.25772333
-1.1965042 -0.024221752 0.14565912 0.16217509 -0.2136485 0.8912551 -0.36368996 0.164015
-0.5570146 -0.13961862 8.168646e-05 -0.6203 -2.576562 0.11776217 0.45291716 0.047708437
-0.34452406 -0.8472649 0.31723228 0.4910974 -0.4762673 0.20394398 -0.003406481 -1.1058629
00000000: 06db 873b e40a 05bd 76af 0040 69ad 04bf
00000010: ab01 87be 42e2 183f f352 483e d246 ff3e
00000020: 29bc 2a3c 890e c03f f281 10bf 9b22 003f
00000030: 13ac 17bf 76dd 93be 808d 6f3f 0fdd bfbd
00000040: e1a1 15bf 05a5 96bd d6d3 8abe 4820 0fbf
00000050: b199 ccbe a5d3 9fbf 3ace 1ebe 7e7a 39bf
00000060: 5fe0 0abf ace5 96be efad 15be 9b39 163f
00000070: 5acb 3c3e 124b 973f 0162 513c 63fa a23f
00000080: 2b07 cfbd 1a08 99be d3b7 bb3e a339 29be
00000090: 84c3 2d3f b665 97be f518 e5be 7579 7b3e
000000a0: 0cce 053f 50ee acbf 3908 93bf 5e9a 6f3f
000000b0: c914 0bbf 1f37 863e 2052 b53d db3e 2abb
000000c0: 45be 093f 74fe b1bd eea7 0fbf fbf1 23be
000000d0: 703e 99be 893c 60be 72fb 69be 302b 0dbf
000000e0: d302 533f 764e 3ebf aa72 6ebf eaca f6bd
000000f0: 4199 2c3e 4c32 41be 7b43 853f 567c ad3f
00000100: 7a90 3d3d 813e 663e 5a22 9bbe e02e dc3d
00000110: 446b 513e 8cfe 03be e9c4 45be 6d9e 64be
00000120: 3166 21be 8d08 1c3d 09b0 28bd 6804 17bf
00000130: 93d9 053f 218e 413f df8d c8be b93d 63bf
00000140: dedf 963e eb0d b53d d609 2e3e 0dca 663f
00000150: 2bca e63e f89a a4be 7991 e0be a18c 4a3f
00000160: 7a6d c7bd e0f8 303f c782 b6be aea6 25bf
00000170: 8af3 293e dc7f f63e 3a9d 5cbf 48e0 b5bd
00000180: 4fc7 8c3f 8c7a a7bd 36f0 a63e 6f5e 4c3e
00000190: 7220 d43e 864b eb3d ab2f 9e3f 3aac 9f3e
000001a0: bb86 92bf 8a5b c2bd fb0f 86bf 35ac d63e
000001b0: 136f 6f3f 315c ea3e 0a5f 463e 1e07 adbf
000001c0: 81f9 09bf 574c ab3f 3e64 97be 1ed4 423f
000001d0: de25 37bd 1c7c e93d 577a 2ebe d019 763f
000001e0: f2f1 2fbe efce 3bbe 9327 d3be 2d2a 24bf
000001f0: b8e5 b7be ee73 f83e 11ce 013f 3cc3 6b3e
00000200: 8296 b13f 4c44 43bc c1b1 1d3f 033b 90bf
00000210: 163b c43e 85a7 15bf 1a3e 7d3f bcf6 60be
00000220: 54cf 023f 0e3e 4c3e 4b09 d7be 369c 313e
00000230: 9bdc af3e 5375 8a3f 87cd 273e 2410 293e
00000240: a037 3c3f 48a0 053f 55eb d7be 59a7 243f
00000250: 4812 46be a7da 6b3e 19dc a3be 47af 313b
00000260: 1fb2 143f 6bea 25bf d406 a13f d795 5dbe
00000270: c5b8 72be 75f9 073f da50 6a3e df2f 883e
00000280: 9f14 20bf fe8e 4ebf 1832 cb3e 8355 c2be
00000290: a208 323d 8f78 0ebe b33f 7e3d f108 50be
000002a0: d9b7 1ebf c470 903e e9d1 683f b4da a5be
000002b0: aa19 e1be e74a cb3b a1ec 7e3e 9a96 ca3f
000002c0: f071 a6be a019 f03e 9e3e 8a3f 1843 a93e
000002d0: 061d 663f cac5 25bf 410a ad3e 930b 033f
000002e0: a530 65be a37e a0be 3c49 023f c37e 3cbd
000002f0: 133a d2bc c5e0 af3e 2518 903f 3aed 933e
00000300: a842 20bf 841e c93d 3042 253e bd8e 61bf
00000310: d879 babe be5f cf3f 432b 4a3b fb40 30bf
00000320: ee7e 70bf 5992 6e3f 102e 9d3f d839 73bf
00000330: b4cf 87bc 5645 b1be 672b 893e 9216 40bc
00000340: 2d30 dd3d c5c6 823e dd33 98be c83b a5bd
00000350: 25d2 87be b38a a33d d205 d53e ceda 75bf
00000360: fabf acba c4e7 513e 590b 25bf 0a5d 67be
00000370: f28a 96bd f2a5 44bf 2ba4 26bf 3a9b 283d
00000380: 9f13 aebe d504 64be 08ff 833f 9d31 493f
00000390: 435e e43c 5342 0dbf 09de 4e3f 50f4 83be
000003a0: 0d27 99bf b26c c6bc aa27 153e 3a11 263e
000003b0: acc6 5abe 4b29 643f 9235 babe 8cf3 273e
000003c0: 8298 0ebf 2ff8 0ebe 164f ab38 fbcb 1ebf
000003d0: 64e6 24c0 4b2d f13d c2e4 e73e ec69 433d
000003e0: 7565 b0be 5ae6 58bf 456c a23e 1e71 fb3e
000003f0: 4fd9 f3be b1d6 503e 443f 5fbb ea8c 8dbf

weight_hh_l1 f4 [512, 128]
-0.9651757 0.40427354 -0.70501167 0.48166543 0.7255186 -0.52538645 0.56613326 0.32157412
0.3275665 0.24197623 0.077643566 0.5066235 0.15474923 -0.89375675 -0.6148192 -0.31844327
0.48586294 -0.3090079 0.4854357 -0.80371064 0.16147953 0.6010132 0.23431712 -0.54342204
0.1252693 -0.49201718 -0.08283011 0.684826 0.6615618 -0.166064 0.26460254 -0.25061184
-0.6525052 1.2169721 0.06592397 0.71247745 0.72397566 0.017267266 -0.7699977 -0.9409899
0.10127473 -0.16583933 1.2934601 0.92641884 0.9855398 -0.6740277 0.01861191 -0.57109815
1.0210292 -0.9138492 -0.7235354 0.73655874 -0.55180585 1.1359963 -0.019204827 -0.33725974
-0.6817815 0.56742996 -0.82325137 0.55462164 -0.9473646 -0.13498147 0.68667233 -0.36227044
0.60299855 0.40279624 -0.9887384 0.5000465 -0.51825386 0.025792588 0.40882674 -0.15978475
0.3358055 -0.18786679 0.15120627 -0.32524213 0.52828217 0.45050555 -0.0478179 0.41964698
-0.27628383 0.28671774 -0.0395124 0.014913888 -0.83276373 -0.6721572 0.6819789 -0.018899934
-0.28711417 0.42335767 0.32219034 -0.2213422 0.37946036 0.18593948 -0.47375026 -0.37806973
0.6956382 -0.5180256 -0.60007477 -0.29088402 0.26241657 0.10463233 0.24708214 -0.2233741
-0.54287606 1.1506168 -0.8965507 0.3849312 -0.14839363 0.5669278 0.7431213 0.19417225
0.0994199 -0.32920912 -0.22486147 0.00048738174 -0.835771 -0.48332575 -0.4698099 -0.9004979
-0.38546738 -0.48366866 1.3549225 0.42399698 0.17984626 -0.3307677 -0.1778384 0.62476397
0.76069576 -0.5653973 0.13528506 0.33996308 -1.0022202 0.85819435 -0.16596252 -0.31025377
0.8830124 -0.039827287 -0.11983817 -0.22909446 -0.3618806 -0.72280616 -0.47361264 0.81772584
0.27542076 -0.6486014 -0.11722525 0.06441145 0.28499037 -0.08041343 0.055087395 0.61000544
-0.7878905 -0.19927329 -0.30692494 -0.83340937 0.07708813 -0.29407674 0.16081147 1.0019555
0.27330405 -0.58519673 1.0891474 0.8244357 -0.59462464 1.1377218 -0.349838 0.34000826
-0.55300075 0.6605771 0.25758436 -0.117306285 -0.23707445 0.19583224 -0.87482095 0.552835
0.20288397 0.39604226 0.30429134 0.41980502 -0.24887739 -0.35973075 0.7759157 0.28361252
0.26816955 -0.40126118 -1.1542331 0.4213157 -0.76195425 0.8447286 -0.18034053 0.26121294
0.037328184 0.0050562564 -1.0161159 -0.5565677 0.72819525 0.49083573 1.0037374 -0.025762307
0.36769053 0.29434302 -0.26325905 0.4289938 0.0841978 -0.57017064 0.06601678 -0.2973164
0.14304306 -0.45158446 0.5187591 1.4744204 0.67965233 0.33682084 -0.52588457 -0.27371472
-0.57302594 0.89956367 1.2035056 -0.035138506 0.68225026 0.36216462 0.5609577 0.49918383
-0.32393217 0.5703934 -0.621221 -0.042581666 1.2649103 0.13527618 0.25276607 0.1971949
2.5868182 1.0931026 -0.17688133 -0.45580408 0.64214534 -0.65458906 -0.21117155 -1.0583715
-0.24244256 0.36533117 0.3329069 -0.035297472 0.12775944 0.2924745 0.9247417 0.30314416
0.94743705 0.4767721 1.3069614 -0.7082435 -0.65769106 0.3292118 1.1357567 -0.22866754
00000000: c115 77bf f1fc ce3e a57b 34bf da9c f63e
00000010: 96bb 393f ba7f 06bf 1cee 103f 5da5 a43e
00000020: ccb6 a73e 9ec8 773e 9703 9f3d 14b2 013f
00000030: 9576 1e3e 3ecd 64bf cb64 1dbf ff0a a3be
00000040: 07c3 f83e 4936 9ebe 078b f83e fbbf 4dbf
00000050: e45a 253e 00dc 193f d4f0 6f3e b51d 0bbf
00000060: 9846 003e ade9 fbbe d5a2 a9bd c250 2f3f
00000070: 1d5c 293f ae0c 2abe fc79 873e 3250 80be
00000080: 950a 27bf bec5 9b3f 2503 873d ec64 363f
00000090: 7856 393f 1574 8d3c 921e 45bf b7e4 70bf
000000a0: 2069 cf3d c9d1 29be 1a90 a53f c929 6d3f
000000b0: 564c 7c3f 148d 2cbf 0178 983c 7d33 12bf
000000c0: 16b1 823f 05f2 69bf 9e39 39bf 1d8f 3c3f
000000d0: 2643 0dbf 5468 913f 7153 9dbc 4fad acbe
000000e0: 3b89 2ebf 1743 113f 9ac0 52bf affb 0d3f
000000f0: 7d86 72bf 9538 0abe c2c9 2f3f 837b b9be
00000100: 1d5e 1a3f 4f3b ce3e f61d 7dbf 0c03 003f
00000110: 49ac 04bf fa4a d33c bd51 d13e 9d9e 23be
00000120: b3ee ab3e 2760 40be d1d5 1a3e 2386 a6be
00000130: 803d 073f aaa8 e63e b4dc 43bd f8db d63e
00000140: 1375 8dbe abcc 923e c1d7 21bd 6159 743c
00000150: 0130 55bf 7f12 2cbf 2b96 2e3f 09d4 9abc
00000160: a100 93be 56c2 d83e 22f6 a43e 88a7 62be
00000170: a148 c23e eb66 3e3e 658f f2be 5b92 c1be
00000180: 5815 323f 539d 04bf 809e 19bf c0ee 94be
00000190: 775b 863e 7a49 d63d 1a03 7d3e 2ebc 64be
000001a0: edf9 0abf 6947 933f 5984 65bf b415 c53e
000001b0: 80f4 17be 2e22 113f 333d 3e3f 17d5 463e
000001c0: a99c cb3d 198e a8be 1642 66be 4587 ff39
000001d0: 17f5 55bf 7976 f7be ec8a f0be 0887 66bf
000001e0: fb5b c5be 6ba3 f7be 1a6e ad3f 2216 d93e
000001f0: 9e29 383e 625a a9be 451b 36be 88f0 1f3f
00000200: f5bc 423f e1bd 10bf 2b88 0a3e a40f ae3e
00000210: c048 80bf a0b2 5b3f 14f2 29be 95d9 9ebe
00000220: 1a0d 623f f021 23bd b76d f5bd bd97 6abe
00000230: 6a48 b9be d309 39bf 5b7d f2be 7b56 513f
00000240: f303 8d3e be0a 26bf cb13 f0bd 26ea 833d
00000250: 42ea 913e ccaf a4bd 52a3 613d 5129 1c3f
00000260: 31b3 49bf 4c0e 4cbe 4425 9dbe 515a 55bf
00000270: 62e0 9d3d 3a91 96be c3ab 243e 1440 803f
00000280: 82ee 8b3e 74cf 15bf 2f69 8b3f 380e 533f
00000290: 5239 18bf dea0 913f f71d b3be 9015 ae3e
000002a0: 7591 0dbf 951b 293f 19e2 833e 473e f0bd
000002b0: a5c3 72be 3f88 483e 44f4 5fbf 9886 0d3f
000002c0: d1c0 4f3e 0dc6 ca3e 13cc 9b3e aff0 d63e
000002d0: b7d9 7ebe a12e b8be 69a2 463f a935 913e
000002e0: 854d 893e 1b72 cdbe e9bd 93bf b1b6 d73e
000002f0: 6f0f 43bf 2240 583f 30ab 38be b4bd 853e
00000300: 70e5 183d f4ae a53b 1610 82bf 397b 0ebf
00000310: 016b 3a3f d24e fb3e 787a 803f 790b d3bc
00000320: ef41 bc3e 21b4 963e e4c9 86be 13a5 db3e
00000330: e56f ac3d b4f6 11bf ce33 873d db39 98be
00000340: e179 123e 1436 e7be 65cd 043f cfb9 bc3f
00000350: b2fd 2d3f c873 ac3e 5fa0 06bf 5624 8cbe
00000360: d4b1 12bf ce49 663f 790c 9a3f 65ed 0fbd
00000370: f4a7 2e3f a46d b93e ec9a 0f3f 0695 ff3e
00000380: 70da a5be 4d05 123f 5708 1fbf 1d6a 2ebd
00000390: 95e8 a13f d785 0a3e 8e6a 813e 76ed 493e
000003a0: 6e8e 2540 c9ea 8b3f 6120 35be 275f e9be
000003b0: a363 243f 2693 27bf 5b3d 58be b878 87bf
000003c0: dd42 78be b00c bb3e c672 aa3e 1594 10bd
000003d0: 5fd3 023e 38bf 953e dfbb 6c3f b635 9b3e
000003e0: 3c8b 723f 791b f43e 834a a73f 724f 35bf
000003f0: 715e 28bf 738e a83e 7a60 913f d327 6abe

bias_ih_l1 f4 [512]
0.062048964 -0.20592633 -0.16876814 0.047776733 0.027561663 -0.09226809 0.118786365 0.401913
0.26249743 -0.46656814 -0.2944479 0.59305304 0.42973137 0.049578656 0.17474872 -0.34368163
0.080185115 0.6398256 0.028424297 -0.16446324 0.06013278 -0.6112731 0.39317703 -0.43799418
0.15506862 -0.48279676 0.57627916 0.0252019 -0.09730385 0.21718818 0.16169836 -0.101057865
-0.1514131 -0.2758447 -0.19176641 0.1804755 0.21698421 0.15642647 0.010756954 -0.63651776
0.20140195 0.30842286 -0.1173036 0.47695374 -0.30801612 0.017831432 -0.23849411 0.115755014
-0.066265106 0.10801759 -0.22124426 0.014330999 0.16666926 0.5400693 0.08982792 -0.1421464
-0.02666211 -0.02807463 0.12642042 -0.054475076 -0.061066844 -0.16653898 0.93260413 0.49557823
-0.021396153 -0.057797477 -0.50341314 -0.021189408 -0.34589794 0.17777254 0.21608791 0.0070372974
0.4456498 0.5145217 -0.31552908 0.33147997 0.18635343 -0.212751 -0.16806574 0.14584462
-0.06842638 -0.30909184 -0.21553163 0.21284783 0.6644113 0.21768378 -0.050880093 0.09512549
0.28992742 -0.07144911 -0.030463051 0.19348066 0.9289738 0.25464863 -0.18078107 0.27314687
0.20063107 -0.43804172 0.13985033 -0.023106558 0.65167093 -0.49548787 -0.15873767 0.20068075
-0.56533295 0.2195255 -0.22499643 0.17534845 0.3085328 -0.15109636 -0.36197618 -0.060918882
0.7976807 -0.1101856 0.02438288 0.2706505 0.271499 0.25135943 0.1088933 0.14171992
-0.73070997 0.26648515 -0.12893394 -0.15002824 -0.28274173 0.122933775 -0.21014158 0.17764819
-0.2052763 0.01070728 -0.19352801 -0.61571264 -0.050555598 -0.47049713 -0.30225107 -0.5556611
-0.08449594 0.06563921 0.08329553 -0.19676515 0.110828884 -0.4467607 0.243543 -0.035863925
0.031839322 -0.9288343 -0.46939883 0.19839136 -0.22871795 -0.11556738 -0.46363917 -0.5394646
-0.34450263 -0.2841194 -0.31709793 0.10607843 -0.2917263 -0.78560615 0.1604668 0.11764037
-0.28915316 0.13293304 -0.2560924 0.26473114 0.15417597 0.018129295 -0.5421232 -0.29384303
-0.6428132 0.101145454 0.06943329 0.11263128 -0.4207126 -0.67257077 -0.11218447 -0.5584006
-0.18739145 -0.21354018 -0.094449624 0.23659362 -0.38779178 -0.4372851 -0.25547737 0.23035073
-0.39605382 -0.7404501 0.16202241 -0.012661557 -0.14073156 0.16247372 0.44014302 -0.33054456
-0.24398291 0.008106524 -0.41347033 -0.18679674 -0.66423726 0.023131913 -0.27055898 -0.049448818
-0.5428248 -0.29125407 -0.4050716 -0.6431084 0.20875475 -0.48084012 -0.8278686 -0.12652972
-0.26854262 0.06315788 -0.6846861 -0.7535442 -0.114140026 -0.9028376 -0.79829395 0.10641244
-0.34859282 -0.2852292 0.03768181 -0.107878596 0.26199037 -0.49251264 0.4454373 -0.020953907
-0.5113527 0.36996615 -0.32845753 -1.0109136 -0.4505299 -0.5275562 -0.34043035 -0.38647667
0.13860697 -0.24154823 -0.43165782 0.08727771 -0.49472636 -0.39150637 -0.16807696 -0.32003218
1.3406283 -0.42092562 -0.25003195 0.3630648 -0.016573401 -0.052527715 0.08673034 -0.3813197
0.26606426 -0.7656341 0.23609515 -0.40711606 -0.22987847 -0.71192104 -0.07852691 -0.42901602
00000000: 0e27 7e3d 5ade 52be 8ed1 2cbe 89b1 433d
00000010: ffc8 e13c 0df7 bcbd 4446 f33d 8ac7 cd3e
00000020: 1066 863e 05e2 eebe e0c1 96be 53d2 173f
00000030: c005 dc3e fd12 4b3d 54f1 323e 0af7 afbe
00000040: 1838 a43d 9ccb 233f 12da e83c 0d69 28be
00000050: ca4d 763d 657c 1cbf 804e c93e c640 e0be
00000060: 4fca 1e3e 2331 f7be 0887 133f 3774 ce3c
00000070: 3e47 c7bd 9466 5e3e 4194 253e 6df7 cebd
00000080: 090c 1bbe 843b 8dbe 6a5e 44be 92ce 383e
00000090: 1c31 5e3e 432e 203e ef3d 303c d4f2 22bf
000000a0: 503c 4e3e 9ae9 9d3e df3c f0bd 4833 f43e
000000b0: 4ab4 9dbe 3913 923c cd37 74be f710 ed3d
000000c0: 00b6 87bd 5438 dd3d db8d 62be 91cc 6a3c
000000d0: 59ab 2a3e fb41 0a3f b3f7 b73d d38e 11be
000000e0: 7f6a dabc c4fc e5bc 5b74 013e 4221 5fbd
000000f0: 3a21 7abd 3289 2abe 25bf 6e3f 6ebc fd3e
00000100: fc46 afbc 0cbd 6cbd afdf 00bf 6995 adbc
00000110: 8919 b1be 010a 363e 2646 5d3e 2199 e63b
00000120: 362c e43e b2b7 033f 078d a1be beb7 a93e
00000130: 6fd3 3e3e 66db 59be 6d19 2cbe 4b58 153e
00000140: 2123 8cbd 4941 9ebe 53b4 5cbe c8f4 593e
00000150: dc16 2a3f 7fe8 5e3e a567 50bd 27d1 c23d
00000160: 5e71 943e e953 92bd a68d f9bc cb1f 463e
00000170: 3ad1 6d3f 4e61 823e ac1e 39be e8d9 8b3e
00000180: 3b72 4d3e 0147 e0be ed34 0f3e f749 bdbc
00000190: e8d3 263f 96b0 fdbe 218c 22be 417f 4d3e
000001a0: a9b9 10bf 4bcb 603e 7765 66be 8b8e 333e
000001b0: 03f8 9d3e 01b9 1abe f154 b9be 1486 79bd
000001c0: cd34 4c3f fda8 e1bd 9bbe c73c b492 8a3e
000001d0: eb01 8b3e 2fb2 803e 7303 df3d 071f 113e
000001e0: cf0f 3bbf be70 883e 4207 04be 01a1 19be
000001f0: 86c3 90be b4c4 fb3d 5b2f 57be 68e9 353e
00000200: f333 52be 966d 2f3c 352c 46be 589f 1dbf
00000210: 6313 4fbd 00e5 f0be a7c0 9abe ce3f 0ebf
00000220: 350c adbd da6d 863d d996 aa3d ce7c 49be
00000230: 41fa e23d d2bd e4be 5663 793e 0de6 12bd
00000240: f369 023d 16c8 6dbf 0b55 f0be 1b27 4b3e
00000250: 0a35 6abe 97ae ecbd 1d62 edbe 5a1a 0abf
00000260: a662 b0be 1978 91be a95a a2be a63f d93d
00000270: 265d 95be 7c1d 49bf 6951 243e 6fed f03d
00000280: e20b 94be 991f 083e 8b1e 83be d78a 873e
00000290: 4ee0 1d3e e383 943c 96c8 0abf 9872 96be
000002a0: 688f 24bf 5925 cf3d 0a33 8e3d 3bab e63d
000002b0: a467 d7be 992d 2cbf f9c0 e5bd 57f3 0ebf
000002c0: 8be3 3fbe 47aa 5abe ce6e c1bd 9945 723e
000002d0: a58c c6be d5e3 dfbe eecd 82be 10e1 6b3e
000002e0: 91c7 cabe 238e 3dbf 34e9 253e 6b72 4fbc
000002f0: ef1b 10be 835f 263e 6d5a e13e 233d a9be
00000300: a8d6 79be 3ad1 043c 62b2 d3be a547 3fbe
00000310: 740b 2abf 237f bd3c b586 8abe d88a 4abd
00000320: 91f6 0abf 411f 95be 8b65 cfbe c1a2 24bf
00000330: cec3 553e ad30 f6be 32ef 53bf 0291 01be
00000340: 6b7e 89be eb58 813d 9747 2fbf 46e8 40bf
00000350: 3fc2 e9bd 5d20 67bf fe5c 4cbf c4ee d93d
00000360: c27a b2be 9009 92be 3e58 1a3d 74ef dcbd
00000370: 9a23 863e 9e2a fcbe 5c10 e43e 87a7 abbc
00000380: 03e8 02bf 346c bd3e 962b a8be 9e65 81bf
00000390: dbab e6be ec0d 07bf e34c aebe 45e0 c5be
000003a0: fcee 0d3e 6b58 77be 4102 ddbe a8be b23d
000003b0: c64c fdbe 8673 c8be 5e1c 2cbe 42db a3be
000003c0: b599 ab3f 9083 d7be 3004 80be a1e3 b93e
000003d0: f1c4 87bc 4d27 57bd ad9f b13d 563c c3be
000003e0: 9339 883e 9900 44bf edc2 713e 8471 d0be
000003f0: 4365 6bbe 7540 36bf b7d2 a0bd fda7 dbbe
